superfile.onnx (onnx, 88725 bytes, 8 tensors)

conv1.bias f4 [10]
0	0xbb2d1c2b	-0.0026414494
1	0x3ceaabb0	0.02864632
2	0xbc656d29	-0.014003077
3	0xbdd7c44e	-0.10535489
4	0xbc781a85	-0.0151430415
5	0xbd712f58	-0.05888304
6	0x3d36e50a	0.044652022
7	0xbb20e931	-0.0024553055
8	0x3e899b2b	0.26876196
9	0x3d5e553c	0.054280505

conv1.weight f4 [10, 1, 5, 5]
0	0x3e59a5c8	0.21254647
1	0x3e219a63	0.1578155
2	0x3e3996f4	0.1812399
3	0xbe5fbd0a	-0.21849456
4	0xbe9ac37f	-0.30227277
5	0x3e65a604	0.22426611
6	0x3eb38c98	0.35068202
7	0x3d7c9dd7	0.061673965
8	0xbe259983	-0.16171841
9	0xbd13a639	-0.036047194
10	0xbe6456c5	-0.22298725
11	0x3d8e67c3	0.06953385
12	0x3e0d7de7	0.13817559
13	0xbd39ad36	-0.045331202
14	0x3d621157	0.055192318
15	0x3cf96035	0.030441383
16	0x3e57024e	0.20996973
17	0x3e275969	0.16342701
18	0xbe24d47b	-0.1609668
19	0x3ccc93f6	0.024972897
20	0xbe5b7302	-0.21430591
21	0x3e467009	0.19378676
22	0xbd0724bc	-0.032994017
23	0xbd98e963	-0.0746639
24	0x3c058e4d	0.008151603
25	0xbddd242f	-0.10797917
26	0x3debcb92	0.11513437
27	0x3d5f64e2	0.05453957
28	0xbd2bade3	-0.04191388
29	0x3df3659c	0.11884615
30	0xbe8bab4d	-0.2727913
31	0xbe138c79	-0.14409055
32	0xbdc9d461	-0.09854961
33	0x3eb0339f	0.34414384
34	0x3eddb088	0.43298745
35	0xbe7c7b2f	-0.24656366
36	0x3e088cb0	0.13334918
37	0x3e8214b7	0.2540643
38	0x3ecc0566	0.3984787
39	0x3ec21ba4	0.37911713
40	0xbdf77a6f	-0.12083899
41	0x3e09c5ed	0.13454409
42	0x3c9dc2c5	0.019257912
43	0x3d8b4bc2	0.06801559
44	0xbe30e0ce	-0.17273256
45	0xbe12bf94	-0.14330894
46	0x3e3a9e0d	0.18224354
47	0xbd7db830	-0.061943233
48	0xbe0d3ddb	-0.13793127
49	0xbe939261	-0.28822616
50	0xbe0694bb	-0.13142674
51	0xbe498340	-0.19678974
52	0xbee1f4c9	-0.4413207
53	0xbeeed9f6	-0.46650666
54	0xbec0819e	-0.3759889
55	0x3e682fd0	0.22674489
56	0xbdb2ebb6	-0.087363645
57	0xbda58668	-0.080822766
58	0xbd5ec476	-0.05438658
59	0xbd35df0d	-0.04440217
60	0x3eada8c4	0.3391782
61	0x3e730208	0.23731244
62	0xbcbb546d	-0.022867406
63	0xbd8092ab	-0.06277975
64	0x3e8ba3d1	0.2727342
65	0x3e969b54	0.2941538
66	0x3e93ce55	0.28868356
67	0x3eb52573	0.35380134
68	0x3dbe03c0	0.09278059
69	0x3da869d5	0.08223311
70	0x3cdf935c	0.027291946
71	0x3e4a937a	0.1978282
72	0x3e851a75	0.25996748
73	0x3e930557	0.2871501
74	0xbcc17662	-0.02361602
75	0x3ea5bf95	0.32372728
76	0x3ecddffe	0.40209955
77	0x3e95c301	0.2925034
78	0x3dc379e3	0.095447324
79	0x3e3e4d8e	0.18584272
80	0x3d6d1e56	0.05789026
81	0x3daa6602	0.08320238
82	0x3e4b4949	0.19852175
83	0x3ea07d3a	0.3134554
84	0x3eb10764	0.3457595
85	0xbe97228b	-0.29518542
86	0x3d9eb5e2	0.07749535
87	0xbd865475	-0.06559078
88	0xbbc1f665	-0.005919265
89	0xbd22bce3	-0.039730918
90	0xbed5e5e2	-0.4177695
91	0xbe94e899	-0.29083708
92	0xbdcadd17	-0.09905451
93	0xbea341bc	-0.3188609
94	0x3d0ce694	0.034399584
95	0xbb3af3a2	-0.0028526564
96	0xbe6f5afb	-0.2337455
97	0xbe8edd53	-0.27903232
98	0xbdabf4af	-0.08396279
99	0x3cb2bec6	0.021819483
100	0x3eafec71	0.34360078
101	0x3e20233d	0.15638442
102	0xbd0e7c50	-0.034786522
103	0xbd52e707	-0.051489856
104	0xbe01d506	-0.12678918
105	0x3e9c4c4b	0.30526957
106	0x3ebc4743	0.36773118
107	0xbc3045c2	-0.010758819
108	0x3db89431	0.0901264
109	0xbdc8fdaa	-0.098140076
110	0x3dfe174f	0.124067895
111	0x3e8a3afa	0.2699812
112	0x3d6cca07	0.057809856
113	0xbe998e43	-0.2999135
114	0xbe5aa041	-0.21350195
115	0x3e93ff36	0.28905648
116	0x3e7323af	0.23744081
117	0x3dc5d298	0.09659308
118	0xbca11d57	-0.01966731
119	0x3db18534	0.086679846
120	0x3e90ff64	0.28319848
121	0xbca71db5	-0.020399908
122	0x3e34fe8d	0.17675228
123	0xbda80cc3	-0.08205559
124	0xbe08c378	-0.13355815
125	0x3e7a2a2c	0.2443015
126	0x3ea39b23	0.31954297
127	0x3ea27287	0.31728002
128	0x3e7940df	0.24341153
129	0x3d7abc61	0.06121481
130	0xbd4d3cb6	-0.050106727
131	0x3d8ecc9c	0.0697262
132	0x3ea48da2	0.32139307
133	0x3d9b053f	0.0756936
134	0x3ec9059c	0.39262092
135	0xbdb633cb	-0.088965975
136	0x3b7905ca	0.0037997835
137	0x3dd5621b	0.10419103
138	0x3e2cb7f5	0.16867049
139	0x3c669b82	0.014075162
140	0xbeb9e763	-0.36309347
141	0xbe89763d	-0.2684802
142	0xbe77f6e2	-0.24215272
143	0xbe36ffa7	-0.17870961
144	0x3e619150	0.22028089
145	0xbee435f6	-0.4457242
146	0xbe75a8b6	-0.2399014
147	0xbe61d360	-0.2205329
148	0x3d8e0e26	0.06936292
149	0x3db2a752	0.0872332
150	0x3e68b014	0.22723418
151	0x3ec377ee	0.38177437
152	0x3e60b3a6	0.2194353
153	0x3ea26003	0.31713876
154	0x3e9e0e65	0.30870357
155	0xbcc1175f	-0.023570715
156	0x3d8165e8	0.06318265
157	0x3dc498da	0.095994666
158	0x3df9c684	0.12196067
159	0xbdc5717c	-0.09640786
160	0xbeb4d0f2	-0.35315663
161	0xbedc1c71	-0.4299045
162	0xbeb58ded	-0.35459843
163	0xbef56f4e	-0.4793648
164	0xbee18cfe	-0.4405288
165	0xbe34b466	-0.17646942
166	0xbe7d929d	-0.2476296
167	0xbe8bcafa	-0.27303296
168	0xbe8ad4f8	-0.27115607
169	0xbe2013af	-0.15632509
170	0xbe0d6d37	-0.13811193
171	0x3c814beb	0.01578327
172	0x3d7efe28	0.0622541
173	0x3e3a6bb9	0.18205155
174	0x3e2fafb8	0.17156875
175	0xbca9da98	-0.020734116
176	0xbe251384	-0.16120726
177	0xbe5b1ba5	-0.21397264
178	0xbe6a2589	-0.22865881
179	0xbd8e9506	-0.06962018
180	0xbd91f2f6	-0.07126419
181	0x3d2c2ce7	0.04203501
182	0xbe8c74fb	-0.27433
183	0xbec1fd35	-0.37888494
184	0xbdea56af	-0.11442315
185	0x3e12cf3a	0.14336863
186	0x3dcdb2ed	0.10043893
187	0xbe717515	-0.2357982
188	0xbdbd86ba	-0.09254213
189	0xbb87bbf0	-0.004142277
190	0xbcce0f6a	-0.025153834
191	0xbcc948e1	-0.024570884
192	0x3eab2773	0.33428535
193	0x3dd7ab52	0.10530724
194	0x3ec051a7	0.37562296
195	0x3eaa8560	0.33304882
196	0x3e71411c	0.23559994
197	0x3e64081a	0.22268716
198	0x3ec4383b	0.3832415
199	0xbd7a31d3	-0.061082672
200	0xbe582259	-0.21106853
201	0x3d927ae1	0.071523435
202	0x3e552823	0.20816092
203	0x3ec6016f	0.3867297
204	0x3df5985e	0.11991952
205	0xbf04687d	-0.51721936
206	0xbe3bbb02	-0.18333057
207	0xbe2e3a17	-0.17014347
208	0x3d6f14e9	0.05836955
209	0x3e81bc79	0.25339106
210	0xbee7851a	-0.45218736
211	0xbf1e44bb	-0.61823624
212	0xbe92396e	-0.2855944
213	0xbe5f4927	-0.21805249
214	0xbe6bc253	-0.23023348
215	0x3e255820	0.16146898
216	0xbe8189b5	-0.25300375
217	0xbf10fdda	-0.56637347
218	0xbec1bb8f	-0.37838408
219	0xbf00110c	-0.5002601
220	0x3ec2f2f2	0.38075978
221	0x3ea0e26e	0.31422752
222	0x3e8c5689	0.2740977
223	0xbb85d79b	-0.00408454
224	0xbe02d2e1	-0.12775756
225	0xbed7e429	-0.4216626
226	0xbeae4cee	-0.34043068
227	0xbe0e192d	-0.13876791
228	0x3dc3d7c7	0.09562641
229	0x3eb0b477	0.34512684
230	0xbebf3c96	-0.3735091
231	0xbe9351cf	-0.28773353
232	0x3e33942a	0.17536989
233	0x3e9310c2	0.28723723
234	0x3e710ab3	0.23539238
235	0xbdbf40c8	-0.09338528
236	0xbe3ca17b	-0.18420975
237	0x3ea14c26	0.3150341
238	0x3e779954	0.24179584
239	0x3e3f2234	0.18665391
240	0xbdbf108a	-0.093293265
241	0xbd8ee393	-0.06977
242	0x3ea58e1d	0.32334986
243	0xbb9a1cb3	-0.0047031282
244	0x3dbbca4d	0.09169445
245	0xbc871680	-0.016490221
246	0x3de73ac1	0.11290503
247	0x3e6fbf58	0.23412836
248	0x3e8d3b0d	0.27584115
249	0xbe1c4cfc	-0.15263742

conv2.bias f4 [20]
0	0x3d1b197c	0.0378661
1	0xbe07e608	-0.13271344
2	0xbd8cbdfa	-0.06872173
3	0x3d4a09d2	0.04932577
4	0x3df3e32c	0.11908564
5	0xbccd16cc	-0.025035284
6	0xbc90aa71	-0.017659398
7	0x3d0743df	0.03302371
8	0x3d42fd95	0.047605116
9	0xbd8653b3	-0.06558933
10	0x3e195ebb	0.14977543
11	0xbc9beab2	-0.01903281
12	0xbd54986c	-0.051903173
13	0xbd9ebf7d	-0.07751367
14	0x3cccf344	0.025018342
15	0xbddc3f64	-0.10754278
16	0x3da18a9b	0.07887765
17	0x3df33fa4	0.11877373
18	0x3bd63901	0.006537557
19	0xbdb857b2	-0.090011016

conv2.weight f4 [20, 10, 5, 5]
0	0xbdf07daf	-0.11742722
1	0xb8da95e2	-0.00010422968
2	0x3d83c1fe	0.064334854
3	0x3cc010d4	0.023445524
4	0x3d506ada	0.05088315
5	0xbe0a7928	-0.1352278
6	0x3d8531e2	0.06503655
7	0xbccd0642	-0.025027398
8	0x3d387a29	0.045038376
9	0x3c3abc57	0.011397443
10	0xbdb4d66a	-0.08829959
11	0xbcc5482a	-0.024082262
12	0x3b828926	0.0039836345
13	0xbce4bafd	-0.027921194
14	0xbd8d5604	-0.06901172
15	0xbddff847	-0.10936027
16	0x3d916f13	0.07101264
17	0xbc837aac	-0.016049705
18	0xbe0fdf51	-0.14050032
19	0xbdd778d0	-0.1052109
20	0x3c90bf66	0.01766939
21	0xb9e2129e	-0.0004311995
22	0xbd33272d	-0.043738533
23	0xbd929aa7	-0.07158404
24	0x3cc8f85e	0.024532493
25	0xbc0f13c1	-0.008732737
26	0x3dfd4def	0.1236838
27	0x3b1c0795	0.002380823
28	0x3d850747	0.06495529
29	0x3dc5f656	0.096661255
30	0x3da2db4f	0.07951986
31	0x3e0a6ef9	0.13518895
32	0x3d1d01ff	0.03833198
33	0x3d6e7291	0.058214728
34	0x3d1c1a09	0.038110767
35	0x3ddbae89	0.10726649
36	0x3cbd0278	0.023072466
37	0x3d428ea8	0.04749933
38	0xbe11cbf1	-0.14237954
39	0xbd36ec7f	-0.044659134
40	0x3cf59b68	0.02998133
41	0x3d17bb39	0.037043784
42	0xbe26ea41	-0.16300298
43	0x3d5c72b6	0.053820334
44	0x3d968782	0.07350065
45	0xbe087c9e	-0.13328788
46	0xbdb83d4e	-0.08996068
47	0xbda1a633	-0.07893028
48	0x3d066b9e	0.032817475
49	0x3d0bc694	0.034124926
50	0xbe23f519	-0.16011466
51	0x3ca50d31	0.020147892
52	0x3dd37bde	0.1032636
53	0x3d3c803d	0.046020735
54	0x3d80208c	0.06256208
55	0xbdae7e84	-0.08520225
56	0x3d9589d1	0.07301677
57	0x3d48dadd	0.04903685
58	0xbddd6a41	-0.10811282
59	0xbd4ae7c0	-0.04953742
60	0xbe0ae0ac	-0.13562268
61	0xbcaafd32	-0.020872686
62	0xbe09b06b	-0.13446204
63	0xbe5a4dd8	-0.21318758
64	0xbd4ee462	-0.05051077
65	0xbdb25bd6	-0.087089226
66	0xbd6a9628	-0.057272106
67	0xbe48b515	-0.19600327
68	0xbdc292b0	-0.09500635
69	0xbddbba10	-0.10728848
70	0xbd96441f	-0.07337212
71	0xbdab27f8	-0.08357233
72	0xbdb4c4ba	-0.08826585
73	0xbdf7c14b	-0.120974146
74	0xbcfde04c	-0.030990742
75	0xbe7884c5	-0.24269398
76	0xbe726111	-0.2366984
77	0xbd14e2ea	-0.036349215
78	0xbd2c3b5f	-0.04204881
79	0x3e1252cf	0.14289401
80	0xbe127e6e	-0.14306042
81	0xbe18fee7	-0.14940988
82	0x3d5798a4	0.052635804
83	0x3d9c7c4c	0.07640895
84	0x3db49686	0.088177726
85	0xbe1b79c7	-0.15183173
86	0xbd0cf5dd	-0.03441416
87	0xbc44422a	-0.011978665
88	0x3c9b70ec	0.018974744
89	0xbe0bc434	-0.13649064
90	0xbdea0e71	-0.11428536
91	0xbbd7c735	-0.0065850266
92	0xbc63a704	-0.0138948
93	0xbdb969e5	-0.09053401
94	0xbdfc5aa5	-0.123219766
95	0xbd812632	-0.06306113
96	0xbd8974b7	-0.06711715
97	0xbe3abe9f	-0.18236779
98	0xb8be7023	-9.080793e-05
99	0x3e27afe8	0.16375697
100	0xbe5be6c5	-0.2147475
101	0x3c0a55dd	0.008443323
102	0x3c5bbef1	0.013412223
103	0xbc4085ed	-0.01175068
104	0x3d8ab12b	0.06772073
105	0xbdda3337	-0.106543
106	0x3da959bb	0.08269068
107	0x3dba25d3	0.09089246
108	0x3b564b87	0.0032698826
109	0x38b270e2	8.5087275e-05
110	0xbde4f1b9	-0.111789174
111	0x3de815ef	0.113323085
112	0x3d81fd6b	0.06347164
113	0xbc1d111b	-0.009586598
114	0xbdec8196	-0.11548154
115	0x3d62b11c	0.055344686
116	0x3d3da4c6	0.04629972
117	0xbd793491	-0.060841147
118	0xbde96fc7	-0.11398273
119	0xbde0c869	-0.10975725
120	0xbcde8386	-0.027162325
121	0x3ce021e6	0.027359914
122	0xbd6d9a5c	-0.058008537
123	0xbde8cffa	-0.113677934
124	0xbd8527a2	-0.065017
125	0xbc7a4a9a	-0.015276575
126	0xbe044565	-0.12917097
127	0xbcb1aa88	-0.021687761
128	0xbdcf335b	-0.10117217
129	0x3d2035dd	0.039113868
130	0xbda2d48d	-0.07950697
131	0xbdbe9219	-0.0930521
132	0x3d3d4663	0.046209704
133	0x3d8283ef	0.063728206
134	0x3d89c67b	0.0672731
135	0xbe0241d6	-0.12720427
136	0xbc8b606a	-0.017013747
137	0xbd049223	-0.03236593
138	0xbd614a1f	-0.055002328
139	0xbe2f735d	-0.17133851
140	0xbdd4aeb3	-0.10384884
141	0xbd2a7594	-0.041616037
142	0x3d8a506b	0.0675362
143	0x3d2d5fc3	0.042327654
144	0xbdf5d226	-0.12002973
145	0xbd95dcdf	-0.073175184
146	0xbd31166e	-0.04323428
147	0xbd5e25a2	-0.05423511
148	0xbdd4bb21	-0.103872545
149	0x3d86e0cf	0.065858476
150	0xbe8c3d94	-0.2739073
151	0xbd40d64e	-0.047079377
152	0xbdd28284	-0.102788
153	0xbd2ac5b9	-0.04169247
154	0x3c8c4e6a	0.017127234
155	0xbe28bc0c	-0.16477984
156	0x3dab64b9	0.08368821
157	0x3d7d24d9	0.06180272
158	0x3e02c762	0.12771371
159	0x3dcfc784	0.101454765
160	0xbdb4b7f3	-0.08824148
161	0x3dfb1a1e	0.12260841
162	0x3df75534	0.12076798
163	0x3dbaff68	0.09130746
164	0x3c4679b0	0.0121139735
165	0x3d6f203c	0.05838035
166	0x3e116d7f	0.14201926
167	0x3db85288	0.090001166
168	0xbb2555f8	-0.0025228243
169	0xbdf3f91e	-0.1191275
170	0x3d817b62	0.063223615
171	0x3d871c0e	0.06597148
172	0xbca1222e	-0.019669618
173	0xbd46d593	-0.048543524
174	0x3e26d7e7	0.16293298
175	0xbc24d321	-0.010060103
176	0x3d82dba6	0.06389551
177	0x3dd40b1a	0.1035368
178	0xbc940bd7	-0.018072052
179	0x3d603e26	0.05474677
180	0xbd129028	-0.03578201
181	0x3cddaf74	0.027061202
182	0x3d87b5d4	0.06626478
183	0xbd9a4cf8	-0.07534212
184	0xbe056e21	-0.13030292
185	0xbd9d4109	-0.0767842
186	0x3ccb63eb	0.024827918
187	0xbdef3d8e	-0.116816625
188	0xbd13c762	-0.03607882
189	0xbcdc6805	-0.02690507
190	0xbd128439	-0.03577063
191	0xbdd054e0	-0.101724386
192	0xbe04014d	-0.12891121
193	0xbcd79b41	-0.026319148
194	0xbd129a72	-0.03579182
195	0x3d12a5be	0.035802595
196	0x3c7742a4	0.015091572
197	0x3d097326	0.03355708
198	0xbd3bbe00	-0.045835495
199	0xbd4a18d4	-0.049340084
200	0xbde4bea0	-0.11169171
201	0xbd9d14c4	-0.07669976
202	0xbba390bb	-0.0049916185
203	0x3d7fe8f9	0.06247804
204	0x3dac910e	0.084261045
205	0x3d9fa164	0.07794455
206	0xbd3cfb85	-0.046138305
207	0xbcc8dabc	-0.024518363
208	0x3daa2542	0.083078876
209	0x3e305652	0.17220429
210	0x3d209186	0.039201282
211	0x3dec0db5	0.11526052
212	0x3e26a2a1	0.16272976
213	0x3d2f7de7	0.04284468
214	0xbd16b7d5	-0.03679641
215	0x3e1895c6	0.14900884
216	0x3dfaf08d	0.12252913
217	0x3c95a24c	0.018265866
218	0xbd19a5f8	-0.037511796
219	0x3de6b94e	0.11265813
220	0x3e1fec8f	0.15617584
221	0x3e09aa71	0.13443924
222	0x3d859c23	0.06523921
223	0x3e9222e7	0.28542253
224	0x3eb30748	0.34966493
225	0x3d61e378	0.05514857
226	0x3ddb3b36	0.10704653
227	0x3d2d1eac	0.04226558
228	0x3b9a3a1f	0.0047066356
229	0x3c955fc4	0.018234141
230	0x3e14c034	0.14526445
231	0x3e0b3b56	0.13596854
232	0x3ad5511e	0.0016274785
233	0xbb40419d	-0.0029335984
234	0x3cce5cc7	0.025190724
235	0x3dd1f0fa	0.10251041
236	0x3d69ef33	0.057112884
237	0xbc680b6c	-0.014162879
238	0xbdeffa64	-0.1171768
239	0xbc834aa3	-0.0160268
240	0x3e002560	0.12514257
241	0x3c787a7d	0.015165922
242	0xbe77c6d5	-0.24196942
243	0x3ca718f8	0.020397648
244	0x3dbca5ac	0.09211287
245	0x3d494951	0.049142186
246	0xbdb3af6f	-0.08773696
247	0x3cc6f33b	0.024285903
248	0x3d9d0479	0.07666869
249	0xbd0fb2aa	-0.035082497
250	0xbb530949	-0.003220158
251	0x3d45ece3	0.048321616
252	0x3d88c4f3	0.0667819
253	0xbcba40f0	-0.022736043
254	0xbcfb40d1	-0.030670555
255	0xbdc4610e	-0.09588824

fc1.bias f4 [50]
0	0x3e246c93	0.16057043
1	0x3d82f4a8	0.06394321
2	0x3d9818bc	0.07426593
3	0x3ce9bd43	0.02853263
4	0x3c33593e	0.01094657
5	0x3d5737ba	0.05254338
6	0x3dc109f4	0.094257265
7	0x3dbaa3f6	0.09113304
8	0xbcf09071	-0.02936575
9	0xbc56b805	-0.013105397
10	0x3e03cc62	0.12870935
11	0x3e0d3ef9	0.13793553
12	0xb9bf0a08	-0.00036437833
13	0x3d6ffb1d	0.05858909
14	0xbcc6d2e8	-0.02427049
15	0x3e10538a	0.14094368
16	0x3c27a6e4	0.010232661
17	0xbd06dd04	-0.03292562
18	0x3d989095	0.07449452
19	0x3d8ba2bd	0.06818149
20	0x3cdf05f4	0.027224518
21	0x3dc358d2	0.095384255
22	0x3dc677c7	0.096908145
23	0x3d15a318	0.03653249
24	0x3d7f2b04	0.062296882
25	0x3db07bff	0.086174004
26	0x3e09d563	0.13460307
27	0x3d8885be	0.06666134
28	0x3d4aafa0	0.049483895
29	0x3d32c9dd	0.043649543
30	0x3d19649e	0.03744947
31	0x3da73775	0.081648745
32	0x3d7684ba	0.06018517
33	0x3e144a60	0.14481497
34	0x3df280de	0.11840986
35	0x3cc6d10c	0.024269603
36	0x3d88ba1b	0.06676122
37	0x3cb6c1c4	0.022309192
38	0x3d861afe	0.06548117
39	0x3e17e54b	0.14833562
40	0x3d65806b	0.056030672
41	0x3d812cc4	0.063073665
42	0xbd5c6cc3	-0.05381466
43	0xbc9f5725	-0.019450733
44	0x3e00d430	0.12580943
45	0x3d12306e	0.035690717
46	0x3c6be051	0.014396743
47	0x3db799f1	0.08964909
48	0x3d8be9ea	0.06831725
49	0x3dca7a23	0.09886577

fc1.weight f4 [50, 320]
0	0x3c6c4ec4	0.014423076
1	0xbd3053eb	-0.04304878
2	0x3cef541a	0.029214907
3	0x3d8c767b	0.06858536
4	0x3d0ccb48	0.03437355
5	0xbd2b98ed	-0.04189389
6	0x3dc3256a	0.095286205
7	0xbdb39eb3	-0.08770504
8	0x3cdddfc6	0.027084243
9	0x3d8763a7	0.06610804
10	0x3cd5a668	0.026080325
11	0xbd25fe80	-0.040525913
12	0xbd345fb3	-0.04403658
13	0x3be6a780	0.0070390105
14	0x3d66090e	0.05616098
15	0xbdb94cac	-0.09047827
16	0x3cc7c225	0.024384568
17	0xbd4ac96d	-0.0495085
18	0x3d48b1ed	0.04899781
19	0x3dc11dc8	0.094295084
20	0xbd895873	-0.067063235
21	0x3b916465	0.004437017
22	0x3dcf7f5d	0.101317145
23	0xbd2ff876	-0.04296156
24	0x3d4079a0	0.04699099
25	0x3d887aeb	0.0666407
26	0x3ab89561	0.0014082604
27	0xbd2fd040	-0.042923212
28	0x3d2251ed	0.03962891
29	0xbd217f0c	-0.039427802
30	0x3d7ed3c0	0.06221366
31	0xbdf67b40	-0.12035227
32	0xbc38760d	-0.011258614
33	0xbe177a29	-0.14792694
34	0xbdb6924e	-0.08914624
35	0xbd1ef3a8	-0.038806587
36	0x3c8f1627	0.017466618
37	0xbd50afdc	-0.050948963
38	0x3c6019ab	0.013677995
39	0x3d944929	0.07240517
40	0xbd163172	-0.03666825
41	0x3e012d1f	0.12614869
42	0x3d4fb1ba	0.050706603
43	0x3c21f2e3	0.009884569
44	0x3dcc3b3d	0.09972236
45	0x3dd472e0	0.10373473
46	0xba286382	-0.0006423519
47	0xbd0d5167	-0.03450146
48	0xbcdddd2c	-0.027083002
49	0xbda7c90b	-0.08192643
50	0x3cff23cd	0.031145
51	0x38f91547	0.000118772085
52	0xbc8cc137	-0.017181976
53	0xbd374c93	-0.04475076
54	0xbdd0da34	-0.10197869
55	0x3d9a48ed	0.07533441
56	0x3d59ca5d	0.053171504
57	0x3df0a254	0.11749712
58	0xbc01f25a	-0.007931316
59	0xbd22f0c3	-0.03978039
60	0x3d040299	0.03222904
61	0x3ceaa2c7	0.028642071
62	0x3cd302f2	0.02575824
63	0x3dbe8870	0.09303367
64	0xbe2a4de0	-0.1663127
65	0x3c22b424	0.009930644
66	0x3dd73da8	0.10509807
67	0x3db4f514	0.088358074
68	0xbd866b42	-0.065634266
69	0xbd68ff20	-0.05688393
70	0xbd348c21	-0.04407895
71	0x3cd08957	0.025456114
72	0xbdd81f7d	-0.10552881
73	0xbd1bf1d7	-0.038072433
74	0x3d9756d8	0.07389611
75	0x3d186e23	0.03721441
76	0xbdae8009	-0.085205145
77	0x3d70eb46	0.058818124
78	0x3db4fa27	0.08836775
79	0xbdb1c423	-0.08679988
80	0xbd6b74ce	-0.05748444
81	0xbc9da40e	-0.019243266
82	0x3d6b09ca	0.057382382
83	0x3d86158c	0.065470785
84	0xbd5e4e47	-0.05427387
85	0x3b825434	0.003977323
86	0x3d8ec06d	0.06970296
87	0xbbf914c5	-0.007601353
88	0x3e02f40a	0.12788406
89	0x3c89e3e0	0.016832292
90	0x3c9918b8	0.018688545
91	0xbe0642a3	-0.13111357
92	0xbe51c4c5	-0.20485218
93	0xbd6adbe4	-0.05733861
94	0x3d770558	0.06030783
95	0xbcf7fada	-0.030270983
96	0xbd56f7ad	-0.052482296
97	0x3d90aa96	0.07063787
98	0x3dcb30f1	0.09921444
99	0x3c816947	0.01579727
100	0xbd3275b1	-0.04356927
101	0x3c02e2e9	0.00798867
102	0xbb429b0c	-0.0029694466
103	0xbd762bf1	-0.0601005
104	0xbe1bb073	-0.15204029
105	0x3d79f560	0.061025023
106	0x3dab740f	0.08371746
107	0x3cfd7179	0.030937897
108	0x3bc2fed5	0.0059507885
109	0xbd80d78e	-0.06291114
110	0xbd036483	-0.032078277
111	0xbd9d942f	-0.076942794
112	0xbe28a530	-0.16469264
113	0xbd639098	-0.055557817
114	0x3d44e93c	0.048073992
115	0x3d89ca55	0.06728045
116	0xbdd2387b	-0.10264679
117	0xbdafa554	-0.08576456
118	0x3a89df19	0.0010518759
119	0x3d5ebbc5	0.05437829
120	0xbdabff47	-0.083983
121	0xbd641c4a	-0.05569104
122	0x3d4d57f8	0.05013272
123	0xbdddcb91	-0.10829843
124	0xbcc4a42d	-0.024004066
125	0x3ae4fd93	0.001747059
126	0x3c6d8e4e	0.01449926
127	0xbbcef339	-0.0063156155
128	0xbe1b4eb0	-0.15166736
129	0x3c83fff3	0.016113257
130	0x3d862c9d	0.06551478
131	0x3ddc958c	0.10770711
132	0xbdda1341	-0.10648204
133	0x3dc12303	0.09430506
134	0x3dbc8828	0.09205657
135	0x3d83ddcf	0.06438791
136	0xbe221ba8	-0.15830863
137	0x3d9ca368	0.07648355
138	0x3cbbec9e	0.022939976
139	0xbe671dd9	-0.2256998
140	0xbdb0a888	-0.08625895
141	0x3c984d75	0.018591622
142	0x3dce98ef	0.100877635
143	0x3d210a5a	0.039316513
144	0xbd791b50	-0.060817063
145	0xbdefd11b	-0.117098056
146	0x3d82e492	0.063912526
147	0xbd17a522	-0.037022717
148	0xbcd2cfa4	-0.025733776
149	0xbe08f850	-0.13375974
150	0xbd11bb93	-0.035579275
151	0x3b70283f	0.0036645082
152	0x3e21be51	0.15795256
153	0x3d37b8e9	0.04485408
154	0xbd0bc388	-0.03412202
155	0xbc46452d	-0.012101454
156	0x3e4301e6	0.19043693
157	0x3dfda44b	0.12384852
158	0xbd270bad	-0.04078262
159	0x3b9b93f4	0.004747862
160	0xbdf1f48d	-0.118142225
161	0x3d294a51	0.04133064
162	0x3e2e27e8	0.1700741
163	0x3d328201	0.043581013
164	0x3ba61b9a	0.0050692083
165	0x3c87bd60	0.016569793
166	0x3b9e8ce7	0.004838574
167	0x3d2fa6b6	0.042883597
168	0xbda80b1e	-0.082052454
169	0xbd8aff6b	-0.06786998
170	0x3d61fb14	0.055171087
171	0x3d1a7e33	0.03771801
172	0xbc707459	-0.014676177
173	0xbcf7fe8c	-0.030272745
174	0x3deb72f4	0.11496535
175	0xbd0c8041	-0.034302
176	0xbd1b5813	-0.03792579
177	0xbd10806c	-0.035278723
178	0x3d921b72	0.07134141
179	0x3dba2adc	0.09090206
180	0xbd111e57	-0.035429325
181	0x3e0d78a3	0.1381555
182	0x3bb9cbaa	0.0056700306
183	0xbb97386b	-0.00461488
184	0x3cb072c9	0.021539109
185	0x3d5189ec	0.051156923
186	0xbe1de01b	-0.1541752
187	0xbdbee0c7	-0.093202166
188	0xbd997758	-0.07493466
189	0x3dcaaa74	0.098957926
190	0xbd9daf11	-0.07699407
191	0x3d24f592	0.040273257
192	0xbe7a51d4	-0.24445277
193	0xbc652427	-0.01398567
194	0x3cbb6d14	0.022879161
195	0x3c84d859	0.016216444
196	0xbdcc3894	-0.09971729
197	0x3d8a2c68	0.06746751
198	0x3d834bfa	0.06410976
199	0xbc81e241	-0.015854957
200	0xbd428ae5	-0.04749574
201	0xbd1b76ab	-0.037954967
202	0xbd2f3920	-0.042779088
203	0xbdc7a8d7	-0.097490005
204	0x3dcab5ca	0.09897955
205	0x3d3bda17	0.045862284
206	0x3d091a3c	0.033472285
207	0x3cdd524f	0.027016787
208	0xbcb4ec0b	-0.02208521
209	0x3d805cb5	0.062676825
210	0xbb85e681	-0.004086316
211	0x3b220e41	0.0024727734
212	0xbdafec1a	-0.08589955
213	0x3da44d9e	0.08022617
214	0xbd366a92	-0.044535227
215	0xbd5e905d	-0.054336894
216	0xbe0a0b12	-0.13480785
217	0xbdb562ca	-0.08856733
218	0x3d51e5a3	0.05124439
219	0xbc2b6f7f	-0.010463594
220	0x3d831d0f	0.06402027
221	0xbcaaef06	-0.020865928
222	0x3d9a9318	0.07547587
223	0xbd996d53	-0.07491555
224	0xbda9ea12	-0.082965985
225	0x3ced6e6b	0.028983315
226	0x3d96593c	0.07341239
227	0xbe1de5dd	-0.15419717
228	0xbda437a3	-0.08018424
229	0x3c0185b1	0.00790541
230	0xbdfc5056	-0.1232001
231	0xbcbe22db	-0.02320998
232	0xbd721b0e	-0.059107833
233	0x3d08bfea	0.03338615
234	0xbb6a22ba	-0.0035726265
235	0x3db067c1	0.086135395
236	0x3a3667c1	0.00069582096
237	0xbcfb4780	-0.030673742
238	0xbd191705	-0.03737547
239	0xbdced8c6	-0.1009994
240	0x3d32198f	0.043481406
241	0xbc3376a6	-0.010953581
242	0xbd874bad	-0.06606231
243	0x3d77d806	0.06050875
244	0xbbd31c1f	-0.0064425613
245	0x3dba5cfc	0.090997666
246	0xbd3b994a	-0.045800485
247	0xbe4798fc	-0.19491953
248	0xbdbd4aa7	-0.092427544
249	0xbca4b1c0	-0.020104289
250	0xbd751bba	-0.059840895
251	0xbde3f6f4	-0.11131087
252	0x3dcc940c	0.09989175
253	0x3da28a89	0.0793658
254	0xbc534e24	-0.012897048
255	0x3d2ffabd	0.042963732

fc2.bias f4 [10]
0	0xbd959185	-0.07303146
1	0x3e5ebc26	0.2175146
2	0xbe6f822f	-0.23389505
3	0x3d03c4a8	0.032169968
4	0xbe1e9daf	-0.15489839
5	0x3dda0b86	0.10646729
6	0xbdfdd02b	-0.123932205
7	0xbd7cead3	-0.061747383
8	0x3e449ea1	0.19201137
9	0x3cc8e89e	0.024524983

fc2.weight f4 [10, 50]
0	0xbcc5ea5c	-0.024159603
1	0xbdcff0a8	-0.101533234
2	0xbdc21193	-0.09476008
3	0x3e0d3f6a	0.13793722
4	0x3dc2a65e	0.09504388
5	0xbe1b50c9	-0.15167536
6	0xbd9d41c6	-0.07678561
7	0xbe756706	-0.23965082
8	0x3cf206a4	0.029544182
9	0x3defd150	0.11709845
10	0xbe856b70	-0.2605853
11	0xbe22010b	-0.1582071
12	0x3e261365	0.16218336
13	0xbe13af70	-0.14422393
14	0xbea25f23	-0.3171321
15	0xbe977ee4	-0.29588997
16	0x3e2e44bb	0.17018406
17	0x3e195a5d	0.14975877
18	0xbda2409d	-0.0792248
19	0x3e0cbc26	0.13743648
20	0xbdc3fda4	-0.095698625
21	0xbcd1cc35	-0.025610069
22	0xbe487a1a	-0.19577828
23	0xbbdd5a36	-0.0067551387
24	0x3e12315e	0.14276645
25	0x3daf4ed1	0.08559955
26	0xbe4a09a4	-0.1973024
27	0x3df8b51d	0.121439196
28	0xbd00d8f0	-0.031456888
29	0xbe2209fe	-0.15824124
30	0x3e76d67b	0.24105255
31	0x3dd95e20	0.10613656
32	0x3dbd23a5	0.09235314
33	0xbe307091	-0.1723044
34	0xbe8f9d93	-0.28049907
35	0xbe3a9a77	-0.18222986
36	0x3df5b0c5	0.11996607
37	0xbe832354	-0.2561289
38	0xbe12df9e	-0.14343116
39	0xbe36620d	-0.17810841
40	0xbe36100e	-0.17779562
41	0x3dcd5523	0.10026004
42	0x3e33b6a2	0.17550138
43	0xbe5e4d83	-0.21709256
44	0x3e362906	0.17789087
45	0x3d3e81b6	0.04651042
46	0xbe78281a	-0.24234048
47	0xbdf7fa34	-0.12108269
48	0x3e1124aa	0.14174142
49	0xbe1dd6d5	-0.15413983
50	0x3e46b0cb	0.19403379
51	0x3e2d2601	0.16909029
52	0x3e3b3ea7	0.18285619
53	0xbe828674	-0.25493205
54	0xbe26aa61	-0.16275932
55	0xbdc8195a	-0.097704604
56	0xbe6928e1	-0.227695
57	0x3de8a3ac	0.11359343
58	0xbe046715	-0.12929948
59	0xbdc270b7	-0.09494155
60	0xbabfad66	-0.001462382
61	0x3e0cede5	0.13762625
62	0xbe648d07	-0.22319423
63	0xbdd1a9c8	-0.10237461
64	0xbe07a6a6	-0.13247165
65	0x3d9f3643	0.077740215
66	0xbc9ff55d	-0.019526178
67	0xbdf12167	-0.11773949
68	0xbddbfd66	-0.10741691
69	0xbdab69ef	-0.083698146
70	0xbc5357cf	-0.012899353
71	0x3e0eec70	0.13957381
72	0xbd758d9d	-0.059949506
73	0xbe956dce	-0.29185337
74	0xbe4a4383	-0.19752316
75	0x3dc54aab	0.096333824
76	0x3e47d093	0.19513159
77	0x3e0375e4	0.1283794
78	0xbe81e140	-0.25367165
79	0xbe60fdde	-0.21971843
80	0xbe166024	-0.14685112
81	0x3dbb8663	0.091564916
82	0xbd870e46	-0.06594519
83	0x3e1f6bfd	0.15568538
84	0x3e0b97a7	0.1363207
85	0x3cdeb00c	0.027183555
86	0xbdc7ac99	-0.09749717
87	0x3dc48af1	0.095968135
88	0x3da5d015	0.08096329
89	0x3e0b9b7f	0.13633536
90	0x3d8bdec1	0.06829596
91	0xbea8d938	-0.32978225
92	0xbe569ced	-0.209583
93	0xbd3cbf71	-0.04608101
94	0xbe9b4858	-0.3032863
95	0xbe95800f	-0.29199263
96	0xbdfbe0f1	-0.122987635
97	0x3de4af22	0.111662164
98	0xbe856429	-0.2605298
99	0x3e319822	0.1734319
100	0xbe01db3d	-0.12681289
101	0xbcbe6b75	-0.023244599
102	0xbd975057	-0.073883705
103	0xbdbcac1b	-0.09212514
104	0x3d900339	0.07031865
105	0x3d51248b	0.05106024
106	0xbe23b102	-0.15985492
107	0xbcdd4015	-0.027008096
108	0x3da04117	0.07824915
109	0x3de9ca40	0.11415529
110	0xbe9638db	-0.29340252
111	0xbd4db900	-0.050225258
112	0x3e15a744	0.14614588
113	0x3e04deb4	0.1297558
114	0xbdbc5684	-0.09196189
115	0xbe132511	-0.14369608
116	0x3e0335af	0.12813447
117	0x3df53a21	0.11973978
118	0xbe938d28	-0.2881863
119	0x3df30160	0.11865497
120	0xbe3d94e7	-0.18513833
121	0x3da6a771	0.08137406
122	0x3df1c572	0.11805238
123	0xbe0265e0	-0.12734175
124	0xbe51baad	-0.20481367
125	0xbe686df8	-0.226982
126	0xbe64d8c3	-0.22348313
127	0xbd96d74f	-0.073652856
128	0xbe250b72	-0.16117647
129	0x3ddff90c	0.10936174
130	0xbde685b4	-0.112559706
131	0x3da97bbb	0.08275553
132	0xbd3eb7ef	-0.04656213
133	0x3e08c133	0.1335495
134	0xbc480df5	-0.012210359
135	0x3de39132	0.11111678
136	0x3dd4a620	0.10383248
137	0x3db16696	0.08662145
138	0x3db39258	0.08768147
139	0x3cf443a2	0.029817406
140	0x3d66cd08	0.056347877
141	0xbe431b9b	-0.190535
142	0x3e140eb0	0.14458728
143	0x3de57d8d	0.112055875
144	0xbe21f6d2	-0.1581681
145	0xbe3c97cc	-0.18417281
146	0x3df5ee52	0.120083466
147	0x3dc6b399	0.09702224
148	0xbc33833f	-0.0109565845
149	0x3e2c2ed3	0.16814737
150	0x3e10a27e	0.14124486
151	0xbe3a5374	-0.18195897
152	0xbd752536	-0.05984994
153	0x3e0d17b8	0.13778579
154	0xbdad3dd2	-0.08459057
155	0x3e45d9ac	0.19321316
156	0xbd4b097a	-0.049569584
157	0x3e171c5c	0.14756912
158	0xbdbbe409	-0.09174354
159	0x3e02b7fd	0.12765498
160	0xbe712368	-0.23548663
161	0x3e27ad49	0.16374697
162	0xbdbdbfba	-0.092650846
163	0x3e0d2b4d	0.13786049
164	0x3b15f251	0.0022880028
165	0xbdf4bd80	-0.11950207
166	0x3dfb4efe	0.12270926
167	0xbe1210c1	-0.14264204
168	0xbe11bd25	-0.14232309
169	0x3dd82f02	0.10555841
170	0xbd5b96ff	-0.053610798
171	0xbe7ea59c	-0.24867862
172	0xbdb70460	-0.08936381
173	0x3dbe276a	0.092848614
174	0xbe6287b7	-0.22122084
175	0x3d89f03b	0.067352735
176	0xbdc8ed10	-0.09810841
177	0xbe5dde3b	-0.21666805
178	0xbd9713e3	-0.0737684
179	0x3da7a4ea	0.08185752
180	0xbdb2280a	-0.08699043
181	0x3d851d79	0.06499762
182	0xbe43a673	-0.19106464
183	0xbe6d12b5	-0.23151667
184	0xbe14d27e	-0.14533421
185	0x3dd98614	0.106212765
186	0xbdbb0a83	-0.09132864
187	0x3ddb65eb	0.10712799
188	0x3d7ba5d4	0.061437443
189	0x3e26a2f9	0.16273107
190	0xbe47b965	-0.19504316
191	0x3ddbca34	0.107319266
192	0xbe1fd154	-0.15607196
193	0x3e27ba8f	0.1637976
194	0xbd0336d7	-0.03203472
195	0xbd296c36	-0.041362964
196	0x3e0412d4	0.12897807
197	0xbdd96ea0	-0.10616803
198	0xbe111712	-0.14168957
199	0xbdc794bf	-0.09745168
200	0xbdc2de65	-0.09515075
201	0x3e2e3818	0.17013586
202	0xbe7f3385	-0.24921997
203	0x3d9c7d47	0.07641082
204	0xbeb5957b	-0.35465607
205	0xbe423ea8	-0.18969214
206	0xbd8d6e3d	-0.06905792
207	0xbe07a810	-0.13247705
208	0xbe918af1	-0.28426316
209	0x3dfab8e9	0.122423
210	0x3da755ae	0.08170639
211	0xbdd3648d	-0.10321913
212	0xbe2596c6	-0.16170797
213	0x3e14fa91	0.14548708
214	0x3cc0986f	0.023510186
215	0x3e13aca8	0.14421332
216	0xbdfa14ce	-0.122109994
217	0x3d1f32c7	0.038866784
218	0xbe01bbf9	-0.12669362
219	0x3d1931d9	0.037401054
220	0x3de3ba64	0.111195356
221	0x3e24b378	0.16084087
222	0x3e475136	0.19464573
223	0xbe772973	-0.24136905
224	0x3de1ef52	0.11031975
225	0x3d9359b1	0.07194842
226	0x3e3b9292	0.18317631
227	0x3e0ffe4e	0.14061853
228	0x3dfd7adf	0.123769514
229	0x3e0b2150	0.13586926
230	0xbd313c7f	-0.043270584
231	0xbe846b65	-0.25863186
232	0x3cfeecd0	0.03111878
233	0xbe3593a8	-0.17732108
234	0x3e1284bd	0.14308448
235	0xbe94e9ed	-0.2908472
236	0xbe86e118	-0.26343608
237	0x3de82665	0.11335448
238	0x3c889402	0.016672138
239	0xbe0a1693	-0.13485174
240	0x3d622564	0.05521144
241	0xbe8c88b3	-0.27448043
242	0x3d9365c2	0.07197143
243	0xbe023e36	-0.12719044
244	0xbe53641a	-0.20643654
245	0x3e308da8	0.17241538
246	0x3e0187d8	0.12649477
247	0xbeae0f0d	-0.33995858
248	0x3cfc8227	0.03082378
249	0xbd525273	-0.05134816
250	0x3deb52f7	0.11490434
251	0xbe9cb93b	-0.3061007
252	0x3dd7e3a1	0.10541464
253	0x3e0b76cf	0.1361954
254	0xbdf3e839	-0.11909527
255	0x3e3c14f9	0.18367375
